MNIST/mnist_wgan/disc_wgan.pt (torch, 440683 bytes, 4 tensors)

weight f4 [32, 1, 4, 4]
0	0x3caf58c3	0.02140463
1	0xbcfa29b5	-0.030537466
2	0x3d1191e3	0.03553952
3	0x3d42c5da	0.047551967
4	0xbbb0bbfd	-0.0053935037
5	0xbcc93ad1	-0.024564179
6	0xbe4c7811	-0.19967677
7	0xbd8588a4	-0.06520203
8	0xbd1e8d44	-0.03870894
9	0x3ea3b228	0.3197186
10	0xbf0948b1	-0.53626543
11	0xbea29c9b	-0.31760105
12	0x3d1a3f03	0.03765775
13	0x3deaffa0	0.11474538
14	0xb9d5b1d5	-0.0004075902
15	0x3dd7ee41	0.1054349
16	0x3e9bafbf	0.3040752
17	0x3d10c45c	0.035343513
18	0x3e3c112f	0.1836593
19	0x3dc8496d	0.0977963
20	0xbc36f256	-0.011166176
21	0xbdb401ef	-0.08789431
22	0xbd89db39	-0.067312665
23	0x3e217494	0.15767127
24	0xba5f5f04	-0.00085209333
25	0xbe348cdf	-0.17631863
26	0xbcae3bc8	-0.02126874
27	0x3dd67e4e	0.104733095
28	0xbda76e40	-0.081753254
29	0x3d55728a	0.052111186
30	0x3b03b520	0.0020096973
31	0x3cce71dd	0.025200779
32	0xbd8d433e	-0.06897591
33	0xb9ea28a5	-0.0004466224
34	0x3d1dc991	0.038522307
35	0xbd5087da	-0.05091081
36	0x3d17bf21	0.03704751
37	0xbe058fb2	-0.13043097
38	0x3db0c870	0.086319804
39	0xbcf523fd	-0.029924387
40	0xbe66378f	-0.22482131
41	0x3f20c4d5	0.6280034
42	0xbd730f32	-0.059340663
43	0xbdb3b788	-0.0877524
44	0x3d9fe61e	0.07807563
45	0xbdc53683	-0.09629538
46	0xbd3f8f32	-0.04676742
47	0xbd3a2e94	-0.045454577
48	0x3d549ea6	0.05190911
49	0x3e200444	0.15626627
50	0xbd407b1b	-0.046992403
51	0x3e0f9c3d	0.14024444
52	0xbe43837b	-0.19093125
53	0xbe641303	-0.22272877
54	0x3c90066c	0.017581187
55	0xbe9ced5f	-0.3064985
56	0x3ea94065	0.33056942
57	0x3e3f5d3d	0.18687911
58	0xbd660a55	-0.056162197
59	0x3e9dbcef	0.30808207
60	0xbe4ae622	-0.19814351
61	0xbd4a0a39	-0.049326155
62	0x3c5d3b9a	0.01350298
63	0xbe1aca02	-0.15116122
64	0xbc30b6cb	-0.010785769
65	0xbc4a8735	-0.012361337
66	0xbc21876f	-0.00985895
67	0xbbaa32b1	-0.005194031
68	0x3e47525e	0.19465014
69	0x3e060c0a	0.1309053
70	0x3d36bb85	0.044612426
71	0x3d6cae0f	0.057783183
72	0x3ebddcc7	0.37082502
73	0xbf313c04	-0.692322
74	0xbe5f8b54	-0.21830493
75	0x3e23e73e	0.1600618
76	0xbba6f7ec	-0.0050954726
77	0x3b843101	0.004034162
78	0x3c9d0798	0.01916866
79	0x3c58c7ca	0.013231227
80	0x3e0edf44	0.13952357
81	0x3b89dda1	0.0042073284
82	0x3b37d4ec	0.0028050495
83	0xbba91368	-0.005159784
84	0x3eb4ead7	0.3533542
85	0xbd14c856	-0.036323868
86	0xbc8cb05e	-0.017173942
87	0x3a8b84a2	0.0010644386
88	0xbead496d	-0.33845082
89	0x3e9a50be	0.30139726
90	0x3e15af3d	0.1461763
91	0xbd3c5ca4	-0.045986786
92	0x3dd1c225	0.10242108
93	0xbc3644e2	-0.011124821
94	0x3ceaeeef	0.028678386
95	0x3d076cdd	0.033062804
96	0xbc5601ca	-0.01306195
97	0x3cb5cfa7	0.022193743
98	0xbc0ea3bd	-0.00870603
99	0xbc90639e	-0.017625626
100	0x3d9d469c	0.07679483
101	0x3e903f66	0.2817337
102	0xbdd91467	-0.105995946
103	0x3e2b1aae	0.16709396
104	0xbcade4ed	-0.021227324
105	0xbe85f051	-0.2615991
106	0xbe56d5d0	-0.2098
107	0xbe5ae994	-0.21378165
108	0xbda89e1a	-0.082332805
109	0xbd1f4efc	-0.038893685
110	0x3ea3962d	0.31950513
111	0x3cdd14a0	0.026987374
112	0x3d5d878a	0.05408434
113	0xbf120cec	-0.5705097
114	0x3f1491cd	0.58034974
115	0xbd3b7a98	-0.04577121
116	0x3c38ce64	0.011279676
117	0xbbca0ef1	-0.006166332
118	0xbca829d4	-0.020527758
119	0xbc09ffbe	-0.00842279
120	0x3bd8f6ee	0.006621233
121	0x3c271200	0.010197163
122	0xbc475349	-0.012165853
123	0x3bf11fdb	0.007358534
124	0xbb40e4be	-0.0029433216
125	0x39faa261	0.00047804698
126	0xbc0dff7b	-0.008666868
127	0x3c0403e3	0.008057567
128	0x3c7fbb9d	0.015608695
129	0xbd1126e8	-0.035437495
130	0xbe006e56	-0.1254209
131	0xbbe15bc0	-0.0068773925
132	0xbe08ede4	-0.13371998
133	0x3f2845ef	0.6573171
134	0xbdd935d7	-0.10605972
135	0xbd2513a1	-0.040301923
136	0xbd9b4b42	-0.07582714
137	0xbe39efa4	-0.18157822
138	0x3d6139c5	0.054986734
139	0x3d8a9720	0.06767106
140	0x3c3be008	0.011466987
141	0x3dc2fd84	0.095210105
142	0xbd33610d	-0.043793727
143	0xbc5d4f34	-0.013507653
144	0xbd8e758f	-0.06956016
145	0xbaefe613	-0.001830282
146	0xbbce838b	-0.0063023022
147	0x3d5d6d00	0.05405903
148	0xbb27467b	-0.0025524187
149	0xbe2591da	-0.16168919
150	0xbc149331	-0.009068296
151	0x3e39052e	0.18068382
152	0xbd69b69a	-0.057058908
153	0x3dc61950	0.09672797
154	0x3e8d50a9	0.276006
155	0x3e25863d	0.16164489
156	0x3e3c37a5	0.18380602
157	0x3df5b54d	0.11997471
158	0x3e15b9f8	0.14621723
159	0x3dc4cf2e	0.09609829
160	0x3e193c19	0.14964332
161	0x3df02f9b	0.1172783
162	0xbdbf00af	-0.09326302
163	0xbd5ba8dd	-0.053627837
164	0xbe811f81	-0.25219348
165	0xbe938d18	-0.28818583
166	0x3e8985c0	0.26859856
167	0x3e5f3ec7	0.21801291
168	0x3e93797e	0.2880363
169	0x3e6d8ebd	0.23198982
170	0xbe2468ad	-0.16055556
171	0xbeb435ab	-0.35197195
172	0xbde03020	-0.10946679
173	0xbd8230ab	-0.06356939
174	0x3df505ed	0.11964021
175	0x3e279613	0.16365843
176	0xbdc0fe46	-0.09423499
177	0xbd9b31dd	-0.0757787
178	0xbd8e7dac	-0.06957564
179	0x3b8c087e	0.0042734733
180	0x3ea421e2	0.320571
181	0x3ec9e635	0.39433447
182	0xbe2725d6	-0.16323027
183	0x3d6d352b	0.057912033
184	0x3e05dcb7	0.13072477
185	0x3ea9c7b4	0.33160174
186	0xbd8197b1	-0.06327761
187	0xbca0cd09	-0.019629018
188	0xbd7be15f	-0.061494227
189	0xbd8717a2	-0.065963045
190	0x3c8980e6	0.016785096
191	0x3bdfea60	0.0068333596
192	0x3cb667e9	0.022266345
193	0xbd5f2331	-0.05447692
194	0x3d5bb1c7	0.05363634
195	0xbd64954d	-0.055806447
196	0xbd1e41df	-0.03863704
197	0x3dbaf4b1	0.091287024
198	0x3d35782f	0.04430407
199	0xbdeaa522	-0.11457278
200	0x3d4a4a34	0.049387172
201	0xbe743a78	-0.23850429
202	0x3f07424f	0.52835554
203	0xbe26ba5a	-0.16282025
204	0xbd378cce	-0.044812016
205	0xbdc27ce4	-0.09496477
206	0x3d8366fb	0.06416126
207	0xbc80ce18	-0.015723273
208	0xbd384bef	-0.04499429
209	0xbe0608ba	-0.13089266
210	0x3d0bd33e	0.034137003
211	0xbd59a71b	-0.05313788
212	0xbe2b00f5	-0.16699584
213	0x3d90cd3b	0.070703946
214	0xbe8a4190	-0.27003145
215	0xbe89149e	-0.26773542
216	0x3d1cfdb5	0.03832789
217	0xbeacc169	-0.3374131
218	0xbe2ec277	-0.1706637
219	0x3c390d2c	0.011294644
220	0xbdbc0e76	-0.09182446
221	0xbe63bcb0	-0.22239947
222	0xbddd3f00	-0.10803032
223	0xbd3fbd67	-0.046811488
224	0x3e7a56ed	0.24447222
225	0x3b8462af	0.0040400843
226	0x3d46016c	0.0483412
227	0xbdb7628a	-0.08954342
228	0x3dbebfd9	0.09313936
229	0x3e3f5ac8	0.18686974
230	0x3d37ae8e	0.044844203
231	0xbd8771c8	-0.06613499
232	0xbe5d2eb4	-0.21599847
233	0x3da56af1	0.08077038
234	0xbb92faa5	-0.0044854456
235	0x3c902f8e	0.0176008
236	0xbdcfa0cf	-0.10138094
237	0xbe5cdc78	-0.21568477
238	0x3d0c3869	0.034233484
239	0xbccd0c80	-0.025030375
240	0xbdca0dfa	-0.09865947
241	0x3d777338	0.060412616
242	0x3e64bf5d	0.22338624
243	0x3d44ddc4	0.048063055
244	0x3d2b57b7	0.0418317
245	0xbe0a4a10	-0.13504815
246	0x3e3aa01d	0.18225141
247	0xbd7f71df	-0.062364455
248	0xbd152393	-0.03641088
249	0xbdccd62e	-0.10001789
250	0xbdfb4a54	-0.12270036
251	0xbe565b03	-0.20933156
252	0xbd8413c7	-0.06449085
253	0xbdcf99dd	-0.10136769
254	0xbe4aa1db	-0.19788305
255	0x3e876d1f	0.2645044

weight f4 [64, 32, 4, 4]
0	0x3d327986	0.043572925
1	0x3ceb659d	0.028734976
2	0x3d400369	0.046878252
3	0x3bb70e4f	0.0055864225
4	0x3dd5507d	0.104157425
5	0x3e03afcf	0.12860034
6	0x3def651b	0.11689206
7	0x3d2c1d25	0.042019982
8	0xbe1c577d	-0.15267749
9	0x3da3d0fd	0.07998846
10	0x3b990d8e	0.0046708053
11	0x3cf34924	0.029697962
12	0xbe4f9ad3	-0.20273905
13	0x3de1f138	0.11032337
14	0x3e8ad770	0.2711749
15	0xbcff2337	-0.031144721
16	0xbdea06dd	-0.1142709
17	0xbdb09274	-0.08621684
18	0xbca5b53d	-0.020228023
19	0xbd72aa55	-0.059244473
20	0x3c9dd5ce	0.01926699
21	0xbd8d2f50	-0.0689379
22	0x3e139c00	0.14414978
23	0xbd20e6b1	-0.039282504
24	0x3c1b9625	0.009496246
25	0xbd9c50ae	-0.07632576
26	0x3d25af27	0.04045024
27	0xbdcfbfcc	-0.10144004
28	0xbd15089f	-0.036385175
29	0x3c849bb5	0.016187528
30	0x3beca4bc	0.0072217863
31	0xbe7d397d	-0.24728961
32	0xbe550ee6	-0.20806465
33	0xbe88911c	-0.2667321
34	0xbe9d167a	-0.3068121
35	0xbe9babdb	-0.30404553
36	0xbde0a70b	-0.10969361
37	0xbf077063	-0.52905864
38	0x3c9ee3db	0.01939576
39	0x3d357d59	0.044308994
40	0xbe006889	-0.12539877
41	0xbe9cb876	-0.30609483
42	0xbe1789f2	-0.14798716
43	0xbdfdb6c2	-0.12388374
44	0x3e332ae7	0.17496835
45	0x3c2ae422	0.010430368
46	0xbce69c52	-0.028150711
47	0x3e07ffd7	0.13281189
48	0xbdf279c6	-0.11839633
49	0x3d705179	0.05867145
50	0xbcbab384	-0.022790678
51	0x3de7e394	0.11322704
52	0x3de78bda	0.113059714
53	0x3cfb8f3a	0.030707944
54	0xbe4e333d	-0.20136733
55	0x3e64398b	0.22287576
56	0xbe165d5b	-0.1468405
57	0xbe1a7e34	-0.15087205
58	0xbdc63a92	-0.0967914
59	0xbe688907	-0.22708522
60	0x3da9b5de	0.082866415
61	0x3d9b99d7	0.07597702
62	0x3e56e791	0.20986773
63	0x3e71ca87	0.23612414
64	0xbe3d9aaf	-0.18516038
65	0xbda5372e	-0.08067165
66	0xbd35d1c6	-0.04438951
67	0xbc889dbf	-0.016676782
68	0xbddfe99c	-0.10933229
69	0xbda5a562	-0.08088185
70	0xbce90086	-0.028442632
71	0x3e2783cf	0.16358875
72	0xbc26eca8	-0.010188259
73	0x3dba846a	0.09107287
74	0x3d2b5d27	0.041836884
75	0x3e820b32	0.25399166
76	0x3bf20feb	0.0073871515
77	0xbc7135ae	-0.014722271
78	0x3e014735	0.1262482
79	0x3e25ca9d	0.16190572
80	0x3ae21f65	0.0017251788
81	0xbdf15bbd	-0.11785076
82	0xbdd972f7	-0.10617631
83	0x3d77bc57	0.06048235
84	0xbc51b232	-0.012798833
85	0xbeae73aa	-0.3407262
86	0xbedebc03	-0.43502817
87	0xbd744ad4	-0.059641674
88	0xbe382549	-0.17982973
89	0x3d1b6fb4	0.037948325
90	0xbe75449e	-0.23951957
91	0xbdcb7b91	-0.09935678
92	0xbe461cb2	-0.19346884
93	0x3d0add9f	0.03390276
94	0x3e06c69e	0.13161704
95	0x3cac382b	0.021022877
96	0x3e06458b	0.13112466
97	0xbddc2b25	-0.10750417
98	0x3df548e6	0.11976795
99	0x3c886bfd	0.016653055
100	0xbe14d56e	-0.14534542
101	0xbce79596	-0.02826957
102	0x3e33b662	0.17550042
103	0xbd750b6d	-0.05982535
104	0xbe1c4150	-0.1525929
105	0xbdc7e018	-0.09759539
106	0xbea27018	-0.31726146
107	0x3b8b3286	0.004247966
108	0x3dcd4be5	0.10024241
109	0x3c0cc962	0.008592935
110	0xbdaeb3ae	-0.08530365
111	0x3e25fe5a	0.16210309
112	0x3e3119cc	0.17294997
113	0x3e9fc36f	0.31203791
114	0x3e0dbd9f	0.13841866
115	0x3e0e5111	0.13898112
116	0x3db83b99	0.08995742
117	0x3d2b9def	0.041898664
118	0xbc230d74	-0.009951938
119	0x3db4aa6c	0.08821568
120	0x3c71d08c	0.014759194
121	0xbe26fcc2	-0.16307357
122	0xbd487c59	-0.048946712
123	0x3e081174	0.13287908
124	0x3de9cff1	0.11416615
125	0x3e592f4b	0.21209447
126	0x3e24c987	0.16092502
127	0x3e2f0212	0.17090634
128	0x3ea160a9	0.31519058
129	0xbddb6dd9	-0.10714311
130	0xbe8ef13f	-0.2791843
131	0xbdb05ee0	-0.08611846
132	0xbe050fc5	-0.12994297
133	0xbe029a02	-0.12754062
134	0xbe69a096	-0.22815165
135	0xbe9d22bc	-0.30690563
136	0xbed2fd0b	-0.4120868
137	0xbe2e1068	-0.16998446
138	0xbed75bff	-0.42062375
139	0xbd52c70f	-0.05145937
140	0x3d59e199	0.053193662
141	0xbd414db9	-0.047193263
142	0x3e5e8412	0.21730068
143	0xbd700fe0	-0.05860889
144	0xbc524726	-0.012834346
145	0xbcc551d7	-0.024086876
146	0x3d64dcac	0.05587451
147	0x3d25bc99	0.040463064
148	0x3ded09d6	0.11574142
149	0x3c068978	0.008211486
150	0x3d89d3ce	0.06729852
151	0x3d4a6c0d	0.04941945
152	0x3d81c6c2	0.06336738
153	0x3e02de1c	0.1278004
154	0x3d9ef948	0.077623904
155	0x3da40da5	0.08010415
156	0x3e0df0b9	0.1386136
157	0xbc7aebb3	-0.015314984
158	0x3d2c4ad1	0.042063538
159	0x3e1e25b2	0.15444067
160	0xbda07da4	-0.07836464
161	0xbdb32640	-0.0874753
162	0xbc6d8564	-0.014497135
163	0xbd7b644d	-0.06137495
164	0xbdd9f87b	-0.10643097
165	0xbecc1c13	-0.3986517
166	0xbe9a6b3b	-0.30159935
167	0x3da67bfa	0.081291154
168	0xbe8e1c1f	-0.2775583
169	0xbec42745	-0.3831121
170	0xbe4f0e28	-0.20220244
171	0xbec63611	-0.38713124
172	0x3e0e0632	0.13869551
173	0xbc19b87e	-0.009382365
174	0xbcd61f60	-0.026138008
175	0xbbe20688	-0.0068977512
176	0x3dad36e1	0.08457733
177	0x3dccc31e	0.09998153
178	0x3dc139dd	0.09434865
179	0x3e1336e8	0.14376414
180	0xbd19d90c	-0.037560508
181	0x3c9a490b	0.018833658
182	0x3dcaad7c	0.09896371
183	0x3e2d7f2f	0.16943048
184	0xbc8b63a3	-0.017015284
185	0x3cf16318	0.029466197
186	0x3d2fccb4	0.04291983
187	0x3d890683	0.06690695
188	0x3d943043	0.07235768
189	0x3d15b90d	0.03655343
190	0x3e7269c9	0.23673166
191	0x3dc411b4	0.09573689
192	0xbe158330	-0.14600825
193	0xbdde684b	-0.10859736
194	0xbd05334d	-0.032519627
195	0xbe31464e	-0.17311975
196	0xbd265c41	-0.040615324
197	0xbc1ab914	-0.00944354
198	0x3d3614ea	0.04445354
199	0xbe97050a	-0.29496032
200	0xbddf4e89	-0.10903651
201	0x3e0c4a4e	0.1370022
202	0xbe4d818b	-0.20068948
203	0x3c6ebe69	0.0145717645
204	0xbdd7aef5	-0.10531417
205	0x3e19c422	0.15016225
206	0x3e84d3f2	0.2594295
207	0x3e26fa19	0.16306342
208	0xbda97b35	-0.08275453
209	0xbd3eb75e	-0.04656159
210	0xbc445d94	-0.011985201
211	0xbdbe1760	-0.09281802
212	0x3c97d93b	0.0185362
213	0x3d121d2b	0.035672348
214	0x3dfe8393	0.124274395
215	0x3dd5f8a7	0.10447817
216	0xbc657216	-0.014004251
217	0x3b8946cf	0.0041893492
218	0x3dabe658	0.08393544
219	0x3a88be36	0.0010432664
220	0x3d4e7153	0.050401043
221	0x3de3ec24	0.111290246
222	0x3e3136ca	0.17306057
223	0x3dfee2d1	0.124456055
224	0xbc63b7db	-0.013898815
225	0x3e806c36	0.25082558
226	0x3e56a273	0.20960407
227	0x3e16dc73	0.14732532
228	0xbbfc25de	-0.007694944
229	0x3efe4882	0.49664694
230	0x3ebac187	0.36475775
231	0x3e16df8c	0.14733714
232	0x3cf874c6	0.03032912
233	0x3e58412d	0.21118613
234	0x3d6ff143	0.058579694
235	0xbdcdf492	-0.10056414
236	0xbd06bbc8	-0.032893926
237	0xbdb57fb3	-0.08862247
238	0x3cb0c630	0.021578878
239	0x3de4e953	0.111773156
240	0xbcc18119	-0.023621129
241	0x3c9c6d08	0.019094959
242	0xbc3d9269	-0.011570551
243	0xbdb769d8	-0.08955735
244	0x3d0ac861	0.033882502
245	0x3d573a92	0.05254609
246	0x3c8f23e5	0.01747317
247	0xbddcff9a	-0.1079094
248	0xbe5cff66	-0.21581802
249	0x3de024d6	0.10944526
250	0x3dd62f94	0.104582936
251	0x3d0e9998	0.034814447
252	0x3d98871c	0.07447645
253	0xbc8b98e0	-0.01704067
254	0x3e108a8d	0.14115353
255	0xbd33a430	-0.043857753

weight f4 [128, 64, 3, 3]
0	0x3e7e0510	0.24806619
1	0xbdd8c484	-0.105843574
2	0xbe76e463	-0.2411056
3	0x3edac268	0.42726445
4	0x3d525bed	0.0513572
5	0x3e27e15a	0.16394559
6	0x3d95e463	0.07318952
7	0x3dcb8abf	0.09938573
8	0x3e4a20e7	0.19739114
9	0x3cddbb74	0.027066924
10	0xbd8d0c44	-0.06887105
11	0xbd253884	-0.0403371
12	0x3e2e664e	0.17031214
13	0xbdaecf14	-0.08535591
14	0xbe328498	-0.17433393
15	0x3dc00aee	0.09377085
16	0xbdefc206	-0.11706929
17	0x3c270b64	0.010195587
18	0x3de97c15	0.1140062
19	0x3dabc90c	0.08387956
20	0xba8235fa	-0.0009934299
21	0x3e90ee54	0.2830683
22	0xbbca5795	-0.0061749914
23	0x3cac9da2	0.021071259
24	0xbd57af9d	-0.052657712
25	0x3c549ba4	0.012976561
26	0xbe1ffef6	-0.15624604
27	0x3bf271ba	0.007398811
28	0xbd491399	-0.049090955
29	0x3e47a401	0.19496156
30	0xbd63df17	-0.055632677
31	0x3e1433a9	0.14472832
32	0x3deee5a1	0.11664892
33	0x3e7ceb8d	0.2469923
34	0xbd60a917	-0.054848757
35	0x3e6035dd	0.21895547
36	0xbdb8ec7d	-0.090294816
37	0x3e341f44	0.17590052
38	0xbd5aab1f	-0.05338585
39	0x3c6c2326	0.014412677
40	0x3e396444	0.18104655
41	0x3d2e5a0b	0.04256634
42	0xbd922083	-0.07135107
43	0xbcbf8fe6	-0.023384046
44	0xbd44ba35	-0.048029143
45	0x3e3e3092	0.18573216
46	0xbdb90881	-0.09034825
47	0x3e71b961	0.23605873
48	0x3da43be6	0.08019237
49	0xbe0af355	-0.13569386
50	0x3c4d17aa	0.012517849
51	0xbda4a333	-0.0803894
52	0xbdf1a770	-0.11799514
53	0x3d73b3c3	0.059497606
54	0x3d65a8a2	0.056069024
55	0xbd7dd629	-0.061971817
56	0xbd85db45	-0.06535963
57	0xbeec8118	-0.4619224
58	0x3c3c6a57	0.011499963
59	0x3e13fb9c	0.1445145
60	0x3d22cedc	0.039748058
61	0xbdb9dd34	-0.09075394
62	0x3cd7eb7e	0.026357409
63	0xbc6a1b32	-0.01428871
64	0x3bccca9a	0.006249738
65	0x3da4ec2c	0.08052859
66	0x3d50237b	0.050815087
67	0xbac701c5	-0.0015183022
68	0x3e4dffcc	0.2011711
69	0x3d9711e3	0.073764585
70	0x3d729728	0.059226185
71	0x3e00bd9f	0.12572335
72	0xbe0cec60	-0.13762045
73	0xbb2fd1b7	-0.002682788
74	0xbc32457e	-0.010880826
75	0x3d3a922d	0.04554956
76	0x3d917513	0.07102408
77	0xbc7a3f84	-0.015273932
78	0x3d8707ac	0.0659326
79	0x3e0195b6	0.12654766
80	0x3da69418	0.081337154
81	0xbcf93f72	-0.03042576
82	0xbcf49b3e	-0.029859181
83	0xbe1246f5	-0.1428488
84	0xbf4d6c77	-0.8024363
85	0xbd1553bf	-0.03645682
86	0xbcc87ede	-0.024474557
87	0x3cd172a2	0.025567356
88	0xbd482e0b	-0.048872035
89	0x3d9dd727	0.07707053
90	0x3cd25648	0.025675908
91	0x3d173d1a	0.036923505
92	0x3ddd6df1	0.10811985
93	0x3dda29ff	0.10652541
94	0xbdbf302b	-0.09335359
95	0xbe70f6f1	-0.235317
96	0x3c9f24c4	0.01942671
97	0xbcf00d38	-0.029303178
98	0x3dcb77ca	0.09934957
99	0xbc9cd502	-0.019144539
100	0xbdda1a8f	-0.10649597
101	0x3d96b700	0.07359123
102	0x3ead5b96	0.33858937
103	0xbd97a96f	-0.07405364
104	0x3ce75488	0.02823855
105	0x3ba08885	0.004899087
106	0xbd9fcf98	-0.07803267
107	0x3e504af0	0.20341086
108	0xbe631abc	-0.22178167
109	0xbdf3d280	-0.11905384
110	0xbc12ae58	-0.0089527
111	0xbddc5e2c	-0.10760149
112	0xbe20bba0	-0.15696573
113	0xbce945d4	-0.02847568
114	0xbe2f62ec	-0.1712758
115	0xbda8b8dd	-0.08238385
116	0x3dd25aee	0.1027125
117	0x3e4549b9	0.19266404
118	0x3d99c766	0.07508735
119	0x3c130ac1	0.008974732
120	0x3c9a8ba9	0.018865423
121	0x3e6e951e	0.23299071
122	0xbca47357	-0.02007453
123	0x3e914a8b	0.28377184
124	0xba308f63	-0.00067352335
125	0xbd575087	-0.05256703
126	0xbd758d2f	-0.059949096
127	0xbe9b1025	-0.30285755
128	0xbd21201b	-0.03933726
129	0x3cfaebec	0.030630074
130	0xbdc689f6	-0.09694283
131	0x3ddd4c39	0.10805554
132	0x3cb17452	0.021661911
133	0x3e094c69	0.13408054
134	0xbd9727d7	-0.07380646
135	0xbd3bd766	-0.045859717
136	0xbc600e4c	-0.013675284
137	0x3da6be65	0.081417836
138	0xbe231458	-0.1592573
139	0x3e4385f3	0.19094066
140	0xbc255d03	-0.0100929765
141	0x3e858341	0.260767
142	0x3db90ed3	0.090360306
143	0x3d2f1612	0.042745657
144	0xbd0e5451	-0.03474838
145	0x3d2c8723	0.042121064
146	0xbb5f2392	-0.0034048301
147	0x3e39e1ca	0.18152538
148	0x3d7a8dbe	0.061170332
149	0xbd7addf1	-0.061246816
150	0x3d99742c	0.07492861
151	0xbbfc6d31	-0.0077034463
152	0x3d2ee22c	0.042696163
153	0xbe30d1f0	-0.17267585
154	0xbddf4529	-0.10901863
155	0x3def29d7	0.11677902
156	0x3e32d948	0.17465699
157	0x3cd21cae	0.025648441
158	0x3dc573cd	0.09641228
159	0x3dd80400	0.10547638
160	0x3db35b1c	0.08757612
161	0x3e3b693b	0.18301861
162	0x3dc84745	0.097792186
163	0x3ccf6815	0.025318185
164	0xbd06627c	-0.032808766
165	0x3e1e963b	0.15486996
166	0x3cd77d40	0.026304841
167	0x3db046c8	0.086072505
168	0x3e2b7396	0.16743311
169	0xbd3f3b93	-0.046687674
170	0xbde16114	-0.11004844
171	0xbc65a668	-0.014016725
172	0xbd7cbb78	-0.06170222
173	0x3d821dff	0.063533776
174	0x3d9ac2e3	0.07556703
175	0xbd634411	-0.055484835
176	0xbcd6df51	-0.026229532
177	0x3e921333	0.28530273
178	0x3e7cc1f4	0.24683362
179	0xbc404640	-0.011735499
180	0x3c9da2b1	0.019242616
181	0x3d1f2a0b	0.038858455
182	0xbdbaf730	-0.091291785
183	0x3c98c955	0.01865069
184	0x3bfc54fe	0.0077005615
185	0x3e3b3a4d	0.18283959
186	0xbd92d97d	-0.07170389
187	0x3dc49e02	0.0960045
188	0x3d76b59d	0.060231794
189	0x3e432517	0.19057117
190	0x3e28450a	0.16432586
191	0x3d2be3c7	0.041965272
192	0xbdda0d9b	-0.10647126
193	0x3e3ba9e3	0.18326525
194	0xbde446b2	-0.111462966
195	0x3e866d35	0.26255193
196	0xbe142570	-0.14467406
197	0xbe93b04b	-0.28845438
198	0x3d9e03b2	0.077155486
199	0x3a4b91be	0.0007765553
200	0xbd55e9d2	-0.05222494
201	0x3cd5a322	0.026078764
202	0x3c86a3e5	0.016435573
203	0xbc0d7d02	-0.008635761
204	0x3d81b4aa	0.06333287
205	0xbdf2d8cc	-0.11857757
206	0x3c8316a3	0.016002005
207	0xbe033570	-0.12813354
208	0x3c53fb2a	0.0129383
209	0xbe2aeb91	-0.16691424
210	0x3e051862	0.12997583
211	0xbe34b7d3	-0.17648248
212	0xbddd7b67	-0.10814553
213	0x3e5d703d	0.21624847
214	0xbd144a63	-0.036203753
215	0x3d14f6b4	0.036368087
216	0xbe88f9e4	-0.2675315
217	0xbc2592e8	-0.010105826
218	0x3df4cc6d	0.119530536
219	0xbd30f7e7	-0.043205168
220	0xbd0ee07d	-0.034882057
221	0xbd3aa776	-0.04556986
222	0xbe021219	-0.12702216
223	0xbd878259	-0.06616659
224	0x3e0f39f5	0.13986953
225	0xbd275308	-0.04085067
226	0xbe59508c	-0.21222132
227	0x3ce4ed1c	0.027945094
228	0xbe6fe809	-0.23428358
229	0x3dc40112	0.09570517
230	0xbd10a6b5	-0.035315234
231	0x3e0d667c	0.13808626
232	0x3db49f33	0.08819427
233	0xbd438d48	-0.04774216
234	0x3e12e33a	0.14344493
235	0x3d72384a	0.059135713
236	0xbe6456af	-0.22298692
237	0xbf3ec4ee	-0.7451924
238	0x3e3de130	0.18542933
239	0x3e1620ce	0.14660951
240	0x3bb04311	0.0053790887
241	0x3d1c17db	0.038108688
242	0x3dd301c2	0.1030307
243	0x3d6da8bb	0.058022242
244	0xbcfa6499	-0.030565547
245	0x3db5cc1e	0.08876823
246	0xbe944751	-0.2896066
247	0x3d9cdbfc	0.07659146
248	0xbd391de6	-0.04519453
249	0x3d96699f	0.073443644
250	0x3d5672b6	0.05235549
251	0x3dc55618	0.09635562
252	0x3c9af158	0.01891391
253	0x3e08cbea	0.13359037
254	0xba5b5e6c	-0.0008368257
255	0xbcc7cf39	-0.024390804

weight f4 [1, 128, 4, 4]
0	0x3ccb1ce1	0.024794044
1	0x3c1c8e78	0.009555452
2	0xbba524be	-0.0050397804
3	0x3bba7f18	0.0056914203
4	0xbd166dd4	-0.036725834
5	0x3c820224	0.015870161
6	0x3cbdba87	0.023160232
7	0xbd10a993	-0.03531797
8	0xbd030023	-0.031982552
9	0x3c5d4ece	0.013507558
10	0x3be9c769	0.0071343672
11	0xbd1ba952	-0.038003273
12	0x3de7b276	0.113133356
13	0x3d061dde	0.032743327
14	0x3b56c7f8	0.0032773
15	0x3e21cebf	0.15801524
16	0xbdf54b95	-0.11977307
17	0xbc1133fd	-0.008862493
18	0xbc490989	-0.01227034
19	0x3e3402ee	0.17579243
20	0x3c5c8a77	0.013460747
21	0x3c17000c	0.00921632
22	0x3aeaf6d4	0.0017926344
23	0xbb4332f7	-0.0029785016
24	0x3cfcfa5f	0.030881105
25	0xbc404254	-0.011734564
26	0xbaa77a97	-0.0012777623
27	0xbb94ed83	-0.004544915
28	0x3dafca78	0.0858354
29	0xbbd31810	-0.0064420775
30	0xbae34e68	-0.0017342092
31	0xbafd55d9	-0.0019327953
32	0x3bba70c7	0.0056897136
33	0xbbe64ffe	-0.007028579
34	0x3c680579	0.014161461
35	0x3b10a1e9	0.0022069162
36	0x3c6cd219	0.014454388
37	0x3c97a4cb	0.018511197
38	0x3c07efdd	0.008296934
39	0xbb2df76f	-0.0026545187
40	0xbbac179b	-0.0052518374
41	0x3d6c79c9	0.05773333
42	0xbe84c2eb	-0.2592996
43	0xbcd6287f	-0.026142357
44	0x3bb8cfdc	0.005640013
45	0xbdecde0f	-0.11565792
46	0xbe1a03e3	-0.15040545
47	0x3c5f8ef4	0.0136449225
48	0x3f3bcd6e	0.73360336
49	0xbdcb7e97	-0.099362545
50	0xbd015a57	-0.031580295
51	0xbc49c1ec	-0.012314301
52	0xbc0296c9	-0.00797052
53	0x3a914b2c	0.0011085025
54	0x3c7da138	0.015480332
55	0x3babed97	0.005246829
56	0xbbd2dd24	-0.0064350534
57	0xbd306c83	-0.043072235
58	0x39de42d9	0.00042392945
59	0xbd0c9745	-0.03432395
60	0xbcb760d7	-0.022385044
61	0x3c1311c1	0.008976401
62	0xbbb05142	-0.0053807804
63	0xbcaf8668	-0.021426395
64	0x3c0b1e68	0.008491136
65	0xbc0777cc	-0.008268308
66	0xbc816800	-0.015796661
67	0x3bc1f5cb	0.0059191934
68	0x3b4dd239	0.003140582
69	0xbb595d24	-0.0033167088
70	0x3b781337	0.003785325
71	0xbe850113	-0.25977382
72	0xbcc4f7e1	-0.02404398
73	0xbba817fb	-0.005129812
74	0xbcd0061f	-0.025393544
75	0x3c249913	0.010046261
76	0xbdb9724f	-0.09055006
77	0xbe26de09	-0.16295637
78	0xbcfba35f	-0.03071755
79	0x3b61a2d2	0.0034429324
80	0x3d2dd258	0.042436928
81	0x3b9638bc	0.0045844
82	0xbc2d704e	-0.010585858
83	0x3c78979e	0.015172867
84	0xbb91fb6a	-0.0044550197
85	0xbd3a95d0	-0.04555303
86	0xbdcf893c	-0.10133597
87	0x3c26d85b	0.010183419
88	0x3c2176e2	0.009855004
89	0xbde5ef80	-0.112273216
90	0xbd381d8a	-0.044950046
91	0x39b4fc16	0.00034520094
92	0x3cefd363	0.029275602
93	0xbb51f7c4	-0.003203855
94	0x3c0a7faf	0.008453294
95	0x3a8ef7bf	0.0010907574
96	0xbda46be9	-0.08028395
97	0x3b3ae31e	0.002851672
98	0x3aa12e77	0.0012297173
99	0xbbfb7037	-0.007673289
100	0xbe0ee663	-0.13955073
101	0xbc633e82	-0.0138698835
102	0xbbc94ce6	-0.0061432
103	0xbdd3a8e7	-0.1033495
104	0xbe924d1d	-0.28574458
105	0x3a079a19	0.00051728036
106	0xbaebbf16	-0.0017986025
107	0xbe58e975	-0.21182807
108	0x3d82693e	0.063677296
109	0x3b00440b	0.0019571807
110	0x3b2fed5c	0.0026844358
111	0xbd07e028	-0.033172756
112	0x3c62caf5	0.013842334
113	0x3c87c956	0.016575497
114	0x3b87a2d3	0.004139283
115	0x3be36868	0.0069399364
116	0xbd590181	-0.05297995
117	0x3cf63532	0.030054662
118	0xbadae662	-0.001670074
119	0xbba5e77c	-0.0050629955
120	0xbdd5d48b	-0.1044093
121	0x3c9c75eb	0.019099196
122	0x3bbc3b75	0.0057443925
123	0xbb55fd81	-0.003265232
124	0xbe4c583e	-0.19955537
125	0xbd14a1c7	-0.036287095
126	0x3b9c562a	0.0047710137
127	0x3bd37d81	0.00645417
128	0x3c9c0c17	0.019048734
129	0x3c70da73	0.01470052
130	0x3cf9db4f	0.030500082
131	0x3bacd21e	0.0052740714
132	0x3bd0cca9	0.0063720536
133	0x3cdcbc2c	0.026945196
134	0xbbf392b8	-0.0074332617
135	0x3c93f1e5	0.01805968
136	0x3ad03b2f	0.0015886779
137	0xbca3d512	-0.01999906
138	0xbd85322d	-0.06503711
139	0x3b46dd6e	0.0030344385
140	0x3dcaa3dc	0.09894535
141	0x3c58a865	0.013223742
142	0xbdcd2f52	-0.10018791
143	0x3bd93397	0.0066284644
144	0xbc9ce0bd	-0.019150132
145	0x3c65f2a9	0.0140349055
146	0xbb858ce4	-0.0040756334
147	0xbc1109e5	-0.008852457
148	0x3bc79df9	0.00609183
149	0xbe7b82d8	-0.24561632
150	0x3c2bcf7b	0.010486479
151	0xbb3a9125	-0.002846786
152	0xbb05ca0b	-0.0020414616
153	0x3c3b2445	0.011422222
154	0x3c78ed19	0.015193247
155	0x3c1372aa	0.008999506
156	0x3c626d98	0.0138200745
157	0xbb985321	-0.0046485816
158	0x3c2b3f31	0.010452078
159	0xbcdac541	-0.026705386
160	0x38602c5a	5.3447067e-05
161	0x3ca22c42	0.019796494
162	0x3c803a78	0.01565288
163	0x3b489bac	0.0030610366
164	0xbb008506	-0.0019610538
165	0xbe17c19a	-0.14819947
166	0xbc8295e2	-0.01594061
167	0x3d52c5c9	0.051458154
168	0x3cab58dc	0.020916395
169	0xbe594433	-0.21217422
170	0xbc0e060d	-0.008668435
171	0x3d8207b0	0.063491225
172	0xba58e474	-0.0008273788
173	0xbe259924	-0.161717
174	0x3c2bbd5b	0.010482158
175	0x3d258e12	0.040418692
176	0x3ef9ebe2	0.48812777
177	0xbd5482e4	-0.05188264
178	0xbcba0541	-0.022707583
179	0x3cb89a67	0.022534562
180	0x3dd48327	0.10376578
181	0xbb0c6f94	-0.002142881
182	0xbb2ca0f3	-0.002634105
183	0x3c53b19e	0.012920765
184	0x3d79fd53	0.061032604
185	0xbc4483fe	-0.01199436
186	0xb9cc445d	-0.00038960847
187	0x3b1236f2	0.0022310582
188	0xbdd6a763	-0.10481145
189	0xbd63aa9e	-0.055582635
190	0xbc840227	-0.016114308
191	0xbb94b48c	-0.0045381244
192	0xbd8ffd3e	-0.07030724
193	0x3ce9585f	0.028484521
194	0x3cc3c0be	0.023895618
195	0x3e0f68c5	0.1400481
196	0x3cce85b5	0.02521024
197	0x3c503479	0.012707823
198	0x3b4d8226	0.0031358092
199	0xbb873708	-0.0041264333
200	0x3c056ce1	0.008143635
201	0x38ff88d9	0.000121848374
202	0x3c4f6cd6	0.012660226
203	0xbb4a978e	-0.0030913088
204	0x3df11969	0.11772425
205	0x3c6d2925	0.014475142
206	0x3c573db1	0.013137267
207	0x3c42fb1e	0.011900691
208	0xbe846149	-0.25855473
209	0xbd5ffc1c	-0.05468379
210	0xba8e82d4	-0.001087273
211	0xbba6632e	-0.005077741
212	0x3a52c42a	0.0008040095
213	0x3bbb4102	0.0057145366
214	0x3c81549b	0.015787413
215	0x3ba6692b	0.005078455
216	0x3b54205e	0.0032367925
217	0x3bf72e5d	0.0075433687
218	0x3c9744c0	0.0184654
219	0xbd35d906	-0.044396423
220	0x3c034cd0	0.008013919
221	0x3d1d552c	0.038411304
222	0xbc174e9e	-0.009235052
223	0xbd892af7	-0.06697648
224	0xbe9a141f	-0.30093476
225	0x3d385de3	0.045011412
226	0x3d0dc206	0.034608863
227	0xbbd591ed	-0.00651764
228	0x3e35b130	0.17743373
229	0x3c8ff62a	0.017573435
230	0x3c58e3c1	0.0132378945
231	0xbb372c5d	-0.0027950027
232	0x3dc74bc7	0.0973125
233	0x3a9a8910	0.0011790115
234	0xbac748bc	-0.0015204172
235	0x3db1b51a	0.086771205
236	0xbc4d7e83	-0.01254237
237	0x3d201b06	0.03908827
238	0x3d54abf7	0.05192181
239	0xbd86ccf2	-0.06582059
240	0x3d184b92	0.037181444
241	0x3cbab0b3	0.022789335
242	0xbcb52ddb	-0.022116592
243	0xbb73a7a2	-0.0037178774
244	0x3a1e9a26	0.00060501916
245	0xbda01813	-0.07817092
246	0x3d050a8f	0.032480773
247	0x3b046007	0.0020198838
248	0x3b920485	0.004456105
249	0xbe22aca4	-0.1588617
250	0xbe0cb1b7	-0.13739668
251	0x3c9772f1	0.018487426
252	0x3b419164	0.0029536122
253	0xbb3bbf00	-0.002864778
254	0x3b8bfca8	0.0042720623
255	0xbc2bf701	-0.010495902
